runtime/risk_model.pth (torch, 3769 bytes, 5 tensors)

fc1.weight f4 [16, 3]
000000 a4 f4 51 3f b7 41 b3 3e 84 34 4c be 08 fe 77 3f
       0.82013917 0.35011074 -0.19941908 0.96871996
000010 2b 92 d5 3e 10 bd a1 3e 63 ca b5 be d4 1c 08 3e
       0.4171308 0.31589556 -0.3550597 0.13292247
000020 59 db 1f 3f 26 66 c3 be 31 a5 89 be 60 13 bb 3e
       0.6244407 -0.3816387 -0.26883844 0.3653822
000030 54 04 77 3f 5f 35 06 3e 24 b1 1e 3c 55 99 8b be
       0.9649098 0.13106297 0.009685788 -0.2726542
000040 0c a7 5d 3e 8c f1 a0 be ec 5c 7b 3f ba 11 be 3d
       0.21645755 -0.31434286 0.9818866 0.09280725
000050 7c 4e d5 3e c6 07 63 3f 50 ce 19 bd f7 93 36 3f
       0.4166144 0.88683736 -0.03755027 0.71319526
000060 89 41 5e 3f aa f4 6a be bc 31 06 3e 7f 1d 68 3e
       0.8681875 -0.22944894 0.1310491 0.22667502
000070 35 e8 4a 3f 15 5d 01 3f 00 f3 41 3f 91 12 33 3f
       0.7926057 0.50532657 0.75761414 0.69950205
000080 4e ee 64 3e 5a d3 2f bf ed 66 3c 3f 46 75 74 3f
       0.22356531 -0.6868187 0.7359455 0.95491445
000090 2f f7 32 bf 14 8d 09 3f 51 85 46 3f 59 1d aa be
       -0.6990842 0.53730893 0.77547175 -0.33225515
0000a0 41 7a 2c be 3c c2 75 be 0d ad e0 be 32 b6 fd 3d
       -0.16843511 -0.23999876 -0.43882027 0.123882666
0000b0 fa 9a 07 bf c5 60 bc bc 75 4e 27 be 48 37 bb be
       -0.5297085 -0.022995362 -0.16338523 -0.36565614

fc1.bias f4 [16]
000000 47 0d 08 3d 81 70 eb be c9 3e 65 3f 8b bc cd be
       0.033215787 -0.4598427 0.8954893 -0.4018291
000010 4d ce 33 be 1d 92 04 bf bc 9f 25 be 75 b7 43 be
       -0.17559166 -0.5178545 -0.16174215 -0.19112952
000020 4e 50 42 3e 57 5d 63 3f 68 b2 d9 be 10 84 2d 3f
       0.18975946 0.888143 -0.42518926 0.67779636
000030 5e 59 66 3e d4 38 19 3f 82 aa 17 3f e1 4e ed be
       0.22495028 0.5985234 0.5924455 -0.46349242

fc2.weight f4 [8, 16]
000000 a3 99 21 bf df 08 c0 be fa e7 bb 3e 5a bc 23 be
       -0.63125056 -0.37506768 0.36700422 -0.15989819
000010 78 e7 ae be c0 c8 e2 3b e8 d6 a7 be 0f 47 02 bf
       -0.34160972 0.006920904 -0.32781148 -0.50889677
000020 aa 35 1d be 56 cd 25 3e c1 f8 e2 be 95 85 eb 3e
       -0.15352502 0.1619161 -0.4433041 0.46000353
000030 f0 b0 22 3f ba be b2 3e 05 4f fb 3d 40 b9 19 3e
       0.63551235 0.34911138 0.12270931 0.15012074
000040 3e 51 de be 93 7a 12 bf 5c 55 77 3e a0 24 57 be
       -0.43421358 -0.57218283 0.24153656 -0.21010065
000050 99 ef 07 bf 70 a5 18 3d dc 6b 6f bc 5a 44 37 bf
       -0.5309997 0.03726715 -0.014613118 -0.7158867
000060 3b 12 8d be 72 d2 93 3e 36 2b 29 bf 69 2e 2a 3f
       -0.2755297 0.28871495 -0.6608156 0.66477066
000070 34 74 e5 3e a2 b8 28 3f a2 23 0c 3f d2 a4 06 be
       0.44815218 0.6590673 0.5474187 -0.13148811
000080 4f 92 01 be 26 02 e2 bc de 87 98 bd 60 79 de 3d
       -0.12653469 -0.027588915 -0.074477896 0.10862994
000090 36 54 71 be e0 8d b2 3d 68 0c 67 bd 6d 3a 8f 3d
       -0.2356728 0.08718467 -0.056408316 0.06993566
0000a0 d3 04 5f bd d7 d4 b1 3d 7c ee 96 be f3 91 6e be
       -0.05444796 0.08683174 -0.29478824 -0.23297863
0000b0 e8 e7 bb 3c aa 37 ec bd 10 61 90 3d b8 ab 44 3e
       0.02293773 -0.115340546 0.07049763 0.1920613
0000c0 ca a3 34 3e 38 ef 3f bd 48 27 13 3e a0 55 2c 3c
       0.17640606 -0.046858996 0.14370453 0.0105184615
0000d0 08 74 30 3d 4a c7 0b be 18 56 53 3d 06 5e 58 3e
       0.043079406 -0.13650241 0.051595777 0.21129617
0000e0 ee 59 54 be 0e 64 73 be 70 c5 25 be 3c 99 c1 bd
       -0.2073743 -0.23768637 -0.16188598 -0.09453055
0000f0 0c ad e0 bd 04 c9 b1 3d 30 a7 59 bd 5e 0c 29 be
       -0.10970506 0.08680919 -0.053137958 -0.16508624
000100 a2 36 15 3f ff 8e b8 3e 75 47 1c bd 76 96 6e be
       0.5828649 0.36046597 -0.038154084 -0.23299584
000110 20 c4 08 3f 16 60 10 be 16 6f 86 3e 49 35 01 3f
       0.53424263 -0.14099154 0.26256627 0.5047193
000120 ea 32 33 3f e5 de 81 3e 85 d4 24 3f a4 35 9c be
       0.69999564 0.25365368 0.6438678 -0.30509675
000130 39 3e 37 bf 8d cf 08 bf d7 55 90 be c0 37 c5 bc
       -0.7157932 -0.534417 -0.2819049 -0.024074435
000140 d9 44 3f bf 9a 97 df be bc 08 2d 3f a8 f4 12 be
       -0.7471443 -0.4367035 0.6759145 -0.14351141
000150 16 b0 02 bf 2e bc 3c be df 06 fa be 13 24 06 bf
       -0.51049936 -0.1843116 -0.48833367 -0.52398795
000160 cf e2 7f 3b d8 5e 48 3e 7a 24 a4 be 41 d1 de 3e
       0.00390451 0.1956743 -0.3205908 0.43519023
000170 1f d8 26 3f 4e e9 c1 3e 75 8e 6e 3e 84 9b 26 be
       0.65173525 0.3787331 0.2329653 -0.16270262
000180 af 9e 07 3f 73 ad 0f 3f e6 61 65 bd 00 d2 04 3e
       0.52976507 0.5612404 -0.056001566 0.12970734
000190 db ed 0c 3f 44 4f 8c 3d bc 8f 2f 3f 5a e6 03 3f
       0.5505044 0.06851056 0.68578696 0.51523364
0001a0 83 73 25 3f b3 bb a0 3e ed ba e2 3e b8 76 0a be
       0.6462938 0.31393203 0.44283238 -0.1352185
0001b0 91 b2 c1 be d7 f5 12 bf 9d cd ab be 00 5e 8f 3b
       -0.37831548 -0.5740637 -0.33555308 0.0043752193
0001c0 22 b2 50 be 05 c6 c3 3c 63 e3 0f bc 0c c3 a0 3d
       -0.20380452 0.023898134 -0.008782241 0.07849702
0001d0 64 0e 25 bd 7e fb 07 3e 46 da 2f 3d fb 6f 98 bd
       -0.040296927 0.1327953 0.04293277 -0.074432336
0001e0 44 e0 21 3e 9a 2c 90 be d0 e3 c5 bc 94 2f 7a be
       0.15808207 -0.28159028 -0.024156481 -0.24432212
0001f0 ca e4 6f be b6 fb 0f 3e 9b 74 e7 3d e8 f7 42 3d
       -0.2342712 0.14060864 0.113015376 0.047599703

fc2.bias f4 [8]
000000 ea 57 fa 3e 61 9e c1 3e 41 80 32 be b0 bf cf 3c
       0.48895198 0.37816146 -0.17431737 0.025359958
000010 47 6b 97 3e 3e a7 c6 3e 94 d6 a0 bd 2b ff 66 be
       0.29574034 0.3879947 -0.078534275 -0.22558276

fc3.weight f4 [1, 8]
000000 b9 d5 46 bf 24 bd 5b bf ae ba f7 bd 21 13 38 be
       -0.77669865 -0.8583548 -0.12096153 -0.17976047
000010 69 e4 3a 3f 74 4a 58 bf 96 9d 44 3f 62 4c 8f be
       0.73004776 -0.84488606 0.7680296 -0.27987963
